exp_id,dataset,seed,optimizer,lr,dropout,batchnorm,weight_decay,momentum,epochs_ran,best_val_acc,best_val_loss,model_summary
E3,Sklearn Digits,42,adam,0.001,0.0,True,0.0,0.9,6,0.986046511627907,0.15964327877344087,"MLP(
  (net): Sequential(
    (0): Linear(in_features=64, out_features=256, bias=True)
    (1): BatchNorm1d(256, eps=1e-05, momentum=0.1, affine=True, track_running_stats=True)
    (2): ReLU()
    (3): Linear(in_features=256, out_features=128, bias=True)
    (4): BatchNorm1d(128, eps=1e-05, momentum=0.1, affine=True, track_running_stats=True)
    (5): ReLU()
    (6): Linear(in_features=128, out_features=10, bias=True)
  )
)"
E4,Sklearn Digits,42,adam,0.001,0.3,False,0.0,0.9,20,0.986046511627907,0.09385080399901367,"MLP(
  (net): Sequential(
    (0): Linear(in_features=64, out_features=256, bias=True)
    (1): ReLU()
    (2): Dropout(p=0.3, inplace=False)
    (3): Linear(in_features=256, out_features=128, bias=True)
    (4): ReLU()
    (5): Dropout(p=0.3, inplace=False)
    (6): Linear(in_features=128, out_features=10, bias=True)
  )
)"
O3,Sklearn Digits,42,sgd,0.1,0.0,False,0.0001,0.9,6,0.9627906976744186,0.14788774092530096,"MLP(
  (net): Sequential(
    (0): Linear(in_features=64, out_features=256, bias=True)
    (1): ReLU()
    (2): Linear(in_features=256, out_features=128, bias=True)
    (3): ReLU()
    (4): Linear(in_features=128, out_features=10, bias=True)
  )
)"
E1,Sklearn Digits,42,adam,0.001,0.0,False,0.0,0.9,6,0.9441860465116279,0.340033334770868,"MLP(
  (net): Sequential(
    (0): Linear(in_features=64, out_features=256, bias=True)
    (1): ReLU()
    (2): Linear(in_features=256, out_features=128, bias=True)
    (3): ReLU()
    (4): Linear(in_features=128, out_features=10, bias=True)
  )
)"
E2,Sklearn Digits,42,adam,0.001,0.3,False,0.0,0.9,6,0.9302325581395349,0.41724302976630456,"MLP(
  (net): Sequential(
    (0): Linear(in_features=64, out_features=256, bias=True)
    (1): ReLU()
    (2): Dropout(p=0.3, inplace=False)
    (3): Linear(in_features=256, out_features=128, bias=True)
    (4): ReLU()
    (5): Dropout(p=0.3, inplace=False)
    (6): Linear(in_features=128, out_features=10, bias=True)
  )
)"
O1,Sklearn Digits,42,adam,0.1,0.0,False,0.0,0.9,6,0.6465116279069767,0.8260719160700953,"MLP(
  (net): Sequential(
    (0): Linear(in_features=64, out_features=256, bias=True)
    (1): ReLU()
    (2): Linear(in_features=256, out_features=128, bias=True)
    (3): ReLU()
    (4): Linear(in_features=128, out_features=10, bias=True)
  )
)"
O2,Sklearn Digits,42,adam,1e-05,0.0,False,0.0,0.9,6,0.10697674418604651,2.3005178385002667,"MLP(
  (net): Sequential(
    (0): Linear(in_features=64, out_features=256, bias=True)
    (1): ReLU()
    (2): Linear(in_features=256, out_features=128, bias=True)
    (3): ReLU()
    (4): Linear(in_features=128, out_features=10, bias=True)
  )
)"
